mlp.pth (torch, 446927 bytes, 8 tensors)

layers.1.weight f4 [128, 784]
-0.004211914 0.026408236 0.02121934 -0.029617464 -0.034194227 0.030223388 0.033454265 -0.025106138
0.011965051 -0.008873187 0.033453587 -0.016193502 0.01754217 -0.017328776 0.008200578 -0.028073316
0.009897947 -0.013737824 0.03317895 -0.01675272 0.030358266 0.02766664 0.024475656 0.0050011016
-0.030196894 -0.012514174 0.015924327 0.001521945 0.0304395 -0.026388075 0.007572133 -0.004974749
0.017328247 -0.03335683 0.011413047 -0.012960925 0.033192355 0.060813766 0.0544823 -0.021877985
0.10509302 0.056070626 -0.07354963 -0.024851356 -0.0072075026 0.08473205 0.07339536 0.13870713
0.14187928 0.13721734 0.029005064 0.0032951182 -0.018339477 -0.030639961 -0.026052266 -0.027010933
0.012241531 0.010205083 0.024870858 -0.013205407 -0.006734402 0.010352116 0.065501586 0.056802787
0.060033318 0.00010923728 -0.1256278 0.06384048 -0.13851473 -0.060467206 -0.09882806 0.1152759
0.09584513 0.14398624 0.121036716 0.058901675 0.15838702 0.31202948 0.18285568 0.034308795
-0.0025437386 0.012870151 -0.015475571 -0.028000131 -0.025331218 -0.020936273 -0.15755768 -0.1476903
0.027461603 0.03859792 0.06549501 -0.0755889 -0.27144778 -0.099875465 -0.19740036 -0.24543542
-0.444731 0.09359753 0.097587764 0.029882818 0.08175374 -0.03457358 -0.0019401141 0.3394656
0.1373986 0.5901055 0.43769422 0.63012666 0.34786132 0.15781128 0.0061777057 -0.026162365
0.010368194 0.03224061 -0.17132412 -0.14442827 0.044433475 -0.11193592 -0.15933754 -0.40801635
-0.3076691 0.13800016 -0.23334141 -0.30134213 -0.15652476 -0.21752267 0.13881367 -0.010619184
0.3712927 0.15492247 -0.03889668 0.21848033 0.4294913 0.5845947 0.12788028 0.2767964
0.38615188 0.25014728 -0.0018265883 0.076394044 0.028691228 -0.0028357916 -0.1497462 -0.13462672
-0.05475671 -0.13862023 -0.19822334 -0.5375451 -0.35504487 -0.076531224 -0.31902733 -0.30324537
0.18717997 -0.013953787 0.4528384 0.1585946 0.5337472 0.7131631 0.2464396 0.2828488
0.365863 0.51761687 0.17843522 0.011819986 0.33448303 0.1435458 0.101963356 0.034838103
-0.0278135 -0.016668627 0.04864582 -0.10939299 -0.15407279 -0.12828273 -0.3528498 -0.25481492
-0.28097722 -0.51075613 -0.5358697 -0.27338728 -0.048181646 -0.105565526 0.22363289 -0.11355236
0.05294959 -0.11984993 -0.1784164 0.031976502 0.10715832 -0.30891407 -0.20540014 -0.21244986
0.28007656 0.08713006 -0.010936505 0.019009309 0.0129708275 -0.019405855 -0.0073918314 -0.13052583
-0.22537509 -0.1924697 -0.42498097 -0.25192374 -0.44284815 -0.57707626 -0.42385775 -0.18430276
0.04686257 -0.12774636 -0.008348268 -0.051029205 -0.122838415 -0.17223588 -0.42061803 -0.09421271
0.045398094 -0.5055253 -0.41572976 -0.5110298 0.041992318 0.13263543 0.050751578 0.062279265
-0.0074276295 -0.04495519 0.045611374 -0.15875511 -0.24958335 -0.20167546 -0.37351674 -0.19569232
-0.40714094 -0.45333177 -0.34888434 0.1141264 0.023562053 -0.0072757304 -0.3338157 -0.17026153
-0.062396657 0.15891075 -0.40328354 -0.22699912 -0.2665691 -0.6647585 -0.59671265 -0.39807993
0.21648496 0.48121887 0.14602919 -0.01912868 0.016664322 -0.03026693 -0.010090411 0.09862534
00000000: 1804 8abb 1656 d83c 2ed4 ad3c 53a0 f2bc
00000010: 3f0f 0cbd 0a97 f73c 5707 093d 63ab cdbc
00000020: 1009 443c d860 11bc a106 093d 3ca8 84bc
00000030: 99b4 8f3c 14f5 8dbc b85b 063c 03fa e5bc
00000040: 002b 223c 9c14 61bc a7e6 073d 003d 89bc
00000050: e6b1 f83c 26a5 e23c 2c81 c83c 48e0 a33b
00000060: 7a5f f7bc 4008 4dbc bc73 823c 007c c73a
00000070: 425c f93c ce2b d8bc a81f f83b 3803 a3bb
00000080: f8f3 8d3c 2ca1 08bd cafd 3a3c 0f5a 54bc
00000090: b5f4 073d db17 793d d528 5f3d 7639 b3bc
000000a0: 023b d73d 50aa 653d 30a1 96bd 1295 cbbc
000000b0: ea2c ecbb ff87 ad3d 4e50 963d 3e09 0e3e
000000c0: cd48 113e b482 0c3e 079c ed3c e9f2 573b
000000d0: ac3c 96bc a800 fbbc 906b d5bc 0846 ddbc
000000e0: b490 483c 3833 273c f8bd cb3c 7e5b 58bc
000000f0: 42ac dcbb ec9b 293c b225 863d 0aaa 683d
00000100: 7fe5 753d 5116 e538 93a4 00be ccbe 823d
00000110: ced6 0dbe 76ac 77bd 5e66 cabd c515 ec3d
00000120: 744a c43d 2171 133e 19e2 f73d e242 713d
00000130: 3530 223e 54c2 9f3e 853e 3b3e 6187 0c3d
00000140: dab4 26bb 53dd 523c 408d 7dbc 8860 e5bc
00000150: 6a83 cfbc 8c82 abbc cd56 21be 203c 17be
00000160: 28f7 e03c da18 1e3d 3f22 863d 5ace 9abd
00000170: 34fb 8abe 828b ccbd 5223 4abe 6c53 7bbe
00000180: c8b3 e3be 10b0 bf3d 18dc c73d d0cc f43c
00000190: 816e a73d 079d 0dbd 6d4b feba 6fce ad3e
000001a0: 38b2 0c3e 2711 173f 7519 e03e fb4f 213f
000001b0: e11a b23e 4899 213e 5a6e ca3b 7552 d6bc
000001c0: 5cdf 293c bb0e 043d 976f 2fbe 01e5 13be
000001d0: e0ff 353d a93e e5bd 6129 23be 85e7 d0be
000001e0: ce86 9dbe ea4f 0d3e 0df1 6ebe 8449 9abe
000001f0: 0748 20be 43be 5ebe 2c25 0e3e 16fc 2dbc
00000200: 141a be3e ffa3 1e3e 2052 1fbd 4fb9 5f3e
00000210: 49e6 db3e 00a8 153f 0cf3 023e 42b8 8d3e
00000220: b3b5 c53e 4e13 803e 226a efba 7b74 9c3d
00000230: de09 eb3c b0d8 39bb 1157 19be 96db 09be
00000240: 9248 60bd 76f2 0dbe 0ffb 4abe 8e9c 09bf
00000250: 71c8 b5be 67bc 9cbd 8d57 a3be fa42 9bbe
00000260: 1bac 3f3e 6d9e 64bc 6fda e73e 9f66 223e
00000270: a8a3 083f db91 363f aa5a 7c3e 8fd1 903e
00000280: 6552 bb3e 8a82 043f b9b7 363e 9da8 413c
00000290: 5c41 ab3e acfd 123e 2ad2 d03d 66b2 0e3d
000002a0: 23d9 e3bc a58c 88bc d740 473d 6f09 e0bd
000002b0: 42c5 1dbe 8c5c 03be bba8 b4be 1a77 82be
000002c0: 3fdc 8fbe eac0 02bf c22e 09bf 6bf9 8bbe
000002d0: 1e5a 45bd bd32 d8bd 0500 653e 248e e8bd
000002e0: abe1 583d e173 f5bd cab2 36be cbf9 023d
000002f0: d275 db3d fc29 9ebe 6a54 52be 758c 59be
00000300: 3266 8f3e 3f71 b23d 072f 33bc 69b9 9b3c
00000310: 9883 543c 07f9 9ebc 2d37 f2bb 90a8 05be
00000320: bac8 66be c716 45be 1b97 d9be 26fc 80be
00000330: febc e2be 45bb 13bf e203 d9be ddb9 3cbe
00000340: f7f2 3f3d f1cf 02be 2dc7 08bc 0004 51bd
00000350: b592 fbbd 9a5e 30be 3f5b d7be 98f2 c0bd
00000360: 5af3 393d 1b6a 01bf 88da d4be d9d2 02bf
00000370: 2300 2c3d 95d1 073e e3e0 4f3d 8b18 7f3d
00000380: 7963 f3bb ef22 38bd fed2 3a3d b390 22be
00000390: c792 7fbe 0384 4ebe 963d bfbe 9163 48be
000003a0: c774 d0be 1a1b e8be f8a0 b2be 1abb e93d
000003b0: 3505 c13c 4069 eebb e4e9 aabe 0a59 2ebe
000003c0: a393 7fbd 80b9 223e 2e7b cebe 7572 68be
000003d0: bf7b 88be 9d2d 2abf 29c2 18bf 22d1 cbbe
000003e0: 3cae 5d3e 5262 f63e ad88 153e c0b3 9cbc
000003f0: 9e83 883c 5af2 f7bc 4052 25bc 15fc c93d

layers.1.bias f4 [128]
-0.13247196 0.10876561 0.26241222 0.2872353 0.08242202 -0.327969 0.008061634 -0.13609059
0.35665363 0.27669233 -0.004170014 0.27370778 -0.4136625 0.18542096 0.08567476 -0.32979947
-0.0091947075 0.13578425 -0.3105549 -0.012429967 -0.09268789 0.2460523 -0.12108618 0.23016974
0.06783074 -0.3552051 0.00039192164 0.14092816 -0.3563512 0.6506052 -0.05572528 0.34492257
-0.033129197 0.028593753 -0.25822464 -0.20259891 0.1938777 0.119535685 -0.10320491 0.13283922
-0.032812137 -0.119812496 -0.44532531 -0.4293646 0.15894808 0.050706588 -0.11298833 0.13687587
-0.44190755 0.27548024 0.09446575 -0.008907232 -0.29350486 0.12070658 0.08050062 -0.4905074
-0.20487101 0.08156028 -0.45929503 -0.3893148 0.337281 -0.22773156 -0.031892322 -0.15143065
-0.6302478 -0.24542083 0.1625243 0.28186792 0.18988907 0.009897845 -0.4486167 -0.25631765
-0.035921976 0.019593362 -0.2518616 0.15339905 0.50980854 0.31753108 0.0037531306 0.23672111
-0.44750282 0.0786958 -0.052525952 0.11987786 0.01903523 -0.025883455 -0.41578454 -0.2884058
-0.44952497 -0.15459429 -0.144172 -0.16283995 0.1785451 -0.41482633 -0.34224823 0.52794045
-0.06848891 -0.3075704 -0.03514717 0.08892947 0.13954549 0.25738433 0.07976673 0.14950202
-0.03218923 -0.40536985 0.033319302 0.20913021 -0.12430383 -0.112351395 0.297463 -0.027673824
0.004808525 -0.3525131 -0.23003885 -0.1428151 -0.08213016 0.28144515 -0.19236423 0.03171584
-0.044477265 -0.24057084 0.3267264 -0.2730281 -0.57892287 -0.22419275 0.08751409 0.00902159
00000000: bba6 07be 81c0 de3d e55a 863e 8110 933e
00000010: e0cc a83d 8eeb a7be f214 043c 555b 0bbe
00000020: 4e9b b63e 9eaa 8d3e 9da4 88bb 6d23 8c3e
00000030: 92cb d3be fede 3d3e 4076 af3d 7adb a8be
00000040: 66a5 16bc 070b 0b3e 0d01 9fbe 0fa7 4bbc
00000050: 26d3 bdbd 22f5 7b3e 08fc f7bd 9eb1 6b3e
00000060: d8ea 8a3d 71dd b5be d57a cd39 794f 103e
00000070: aa73 b6be 108e 263f 3140 64bd b199 b03e
00000080: 7bb2 07bd 723d ea3c 0536 84be 1776 4fbe
00000090: e087 463e 20cf f43d 195d d3bd 0107 083e
000000a0: 0566 06bd 4160 f5bd ae01 e4be add5 dbbe
000000b0: 49c3 223e b6b1 4f3d 6d66 e7bd 3029 0c3e
000000c0: b541 e2be bf0b 8d3e 4277 c13d a4ef 11bc
000000d0: 4546 96be 0335 f73d 82dd a43d c923 fbbe
000000e0: b5c9 51be 1309 a73d b828 ebbe 4554 c7be
000000f0: 18b0 ac3e 7632 69be 86a1 02bd a310 1bbe
00000100: eb57 21bf 994f 7bbe c56c 263e fe50 903e
00000110: 4872 423e 922a 223c 17b1 e5be 113c 83be
00000120: ec22 13bd 4282 a03c 01f4 80be a414 1d3e
00000130: d082 023f 6f93 a23e 15f7 753b 0567 723e
00000140: 171f e5be 432b a13d 7425 57bd 8682 f53d
00000150: c5ef 9b3c 8a09 d4bc b6e1 d4be eda9 93be
00000160: 2328 e6be f74d 1ebe d3a1 13be 84bf 26be
00000170: 87d4 363e 1e64 d4be 293b afbe 1b27 073f
00000180: ea43 8cbd de79 9dbe 7bf6 0fbd a720 b63d
00000190: 03e5 0e3e e1c7 833e bd5c a33d 0f17 193e
000001a0: dbd8 03bd a38c cfbe d279 083d 3b26 563e
000001b0: 0293 febd 7d18 e6bd 124d 983e 37b4 e2bc
000001c0: d590 9d3b 997c b4be 4e8f 6bbe 1f3e 12be
000001d0: db33 a8bd 9419 903e 21fb 44be 78e8 013d
000001e0: cb2d 36bd 3458 76be af48 a73e 57ca 8bbe
000001f0: 4a34 14bf c992 65be 963a b33d 4bcf 133c

layers.3.weight f4 [64, 128]
-0.040841 0.08949629 -0.36343804 0.5194547 0.1581656 0.21475619 -0.223067 -0.15615487
0.14788665 0.086267166 0.119967125 -0.900847 0.21611921 0.615559 -0.28279957 -0.046440843
0.22049695 -0.07831916 0.3170727 0.0001978292 0.024440285 0.2818779 -0.6023397 -0.047375403
-0.5738527 0.521967 0.5092466 0.42873266 -0.058452137 0.65828806 -0.27958938 0.34632638
0.25381455 -0.58168143 0.31437814 -0.030022338 -0.7332884 -0.05853994 0.064746976 -0.28345883
0.3703511 -0.83978003 -0.22899106 -0.47126135 0.45225644 -0.47191486 -0.3725476 0.16969481
-0.016843557 0.73430204 0.3484405 0.17911826 -0.11773596 0.14959045 -0.25344458 0.006115807
-0.538985 -0.35608885 -0.08319278 -0.016388943 0.23389024 -0.3651899 -0.032394182 -0.6271715
-0.007791619 -0.23675364 -0.2966284 -0.4906463 0.3066341 0.37449238 -0.19566248 -0.41636747
-0.23298685 0.09064409 0.3726921 -0.6396588 0.14509265 0.3569551 0.13837089 0.2942558
-0.91921973 0.18357368 -0.06003988 0.0127697205 0.1171072 -0.3801767 -0.023749566 0.039794303
-0.3485949 -0.28961298 0.019187247 -0.34962487 0.28544798 0.0024302087 0.23591658 0.32279167
-0.3297949 0.41737202 -0.17369291 0.30080542 0.32602668 0.43529576 -0.55590516 0.23561864
0.06719338 -0.49483263 0.2996292 -0.27723747 -0.2920854 0.11102615 -0.587554 -0.71981037
-0.27918458 0.46973485 0.17670004 -0.3824754 0.3199226 -0.38914746 -0.13690296 0.1617835
-0.12780611 -0.09445743 0.78795964 -0.314325 -0.09683222 -0.11995488 -0.31554845 0.27563798
0.25742415 -0.0026025623 0.06514212 -0.74450237 0.03821376 -0.072387725 -0.016613746 -0.1967088
-0.0014823499 0.34362987 -0.9205923 0.11357369 0.02825557 -0.73387724 0.06386705 0.091860406
0.33209324 0.40438816 0.0030099931 -0.014954886 -0.1569629 -0.7472345 -0.0055845333 -0.05510412
-0.08841496 -0.7622488 -0.5979639 0.031109184 -0.1642962 -0.74309456 0.082411535 -0.09404076
0.25064304 0.38254237 -0.16540103 -0.20688288 -0.3213841 -0.110209666 0.34237078 -0.36162788
0.021029973 0.12802207 0.5742098 0.30601075 -0.5637069 -0.053838976 0.38029814 -0.15592116
-0.25817174 -0.13431504 -0.08645937 0.07052985 0.5406504 0.39610967 0.16694824 0.29891008
-0.0802487 -0.030121248 -0.16480704 0.5187604 0.035829723 -0.015534954 0.0005589195 0.08367851
0.17282645 -0.12860452 0.14860325 -0.61205304 -0.7115005 -0.15958469 0.25934997 0.08692504
0.3425253 0.066539735 -0.9225344 0.09583869 -0.016330693 -0.16251312 -0.2733829 0.1971559
0.19145139 -0.15797053 -0.44243222 -0.4786946 0.14081618 0.007380804 0.046103388 -0.06565563
0.14000136 -0.3908804 -0.25373098 0.10346781 -0.12549108 0.19838187 -0.023839999 -0.57585764
-0.4233409 0.17855567 -0.31978834 -0.99152833 0.13474472 -0.22537054 -0.20347166 -0.20616554
0.012242575 -0.13356528 -0.030493595 -0.32115334 0.26407832 -0.16614446 0.05028376 0.4475001
0.20836176 -0.0494144 -0.038711037 0.050806105 0.48928016 -0.32267657 0.55227774 -0.18488066
0.12516122 0.3175482 -0.33836022 -0.15204263 -0.18592528 -0.084677495 0.36548817 -0.9115588
00000000: e448 27bd d549 b73d 8d14 babe fcfa 043f
00000010: 2af6 213e 0ce9 5b3e ad6b 64be 10e7 1fbe
00000020: 996f 173e d7ac b03d 53b1 f53d e99d 66bf
00000030: 5b4e 5d3e 4695 1d3f 1bcb 90be c138 3ebd
00000040: f4c9 613e cc65 a0bd 5a57 a23e 5f70 4f39
00000050: fe36 c83c 4d52 903e ef32 1abf b60c 42bd
00000060: 03e8 12bf a19f 053f fc5d 023f d982 db3e
00000070: 826b 6fbd 9185 283f 5726 8fbe b151 b13e
00000080: fbf3 813e 13e9 14bf 2cf6 a03e 68f1 f5bc
00000090: cab8 3bbf 93c7 6fbd 109a 843d 8421 91be
000000a0: a99e bd3e d3fb 56bf a27c 6abe 2b49 f1be
000000b0: 288e e73e d39e f1be 8fbe bebe 7ac4 2d3e
000000c0: 80fb 89bc 38fb 3b3f cb66 b23e c76a 373e
000000d0: 8d1f f1bd 3d2e 193e 7dc3 81be 1c67 c83b
000000e0: ecfa 09bf 4751 b6be fa60 aabd 1b42 86bc
000000f0: ec80 6f3e 2cfa babe c3af 04bd 508e 20bf
00000100: d650 ffbb 8c6f 72be addf 97be fe35 fbbe
00000110: 25ff 9c3e 77bd bf3e bf5b 48be 1e2e d5be
00000120: 1b94 6ebe 9ca3 b93d 80d1 be3e aec0 23bf
00000130: 2b93 143e d2c2 b63e 19b1 0d3e b2a8 963e
00000140: fc51 6bbf bdfa 3b3e 61ec 75bd 1738 513c
00000150: e6d5 ef3d 85a6 c2be 738e c2bc 5aff 223d
00000160: 087b b2be 2748 94be 932e 9d3c 0802 b3be
00000170: 3d26 923e 2344 1f3b 1e94 713e f344 a53e
00000180: e1da a8be c9b1 d53e 8edc 31be 2b03 9a3e
00000190: f8ec a63e 16df de3e cd4f 0ebf 0346 713e
000001a0: af9c 893d b45a fdbe 0069 993e 12f2 8dbe
000001b0: 388c 95be ae61 e33d f069 16bf 7e45 38bf
000001c0: 48f1 8ebe 1681 f03e dbf0 343e d1d3 c3be
000001d0: e5cc a33e 563e c7be 4a30 0cbe 93aa 253e
000001e0: 9bdf 02be e672 c1bd b9b7 493f 35ef a0be
000001f0: f94f c6bd e7aa f5bd 918f a1be 6c20 8d3e
00000200: 19cd 833e c08f 2abb 3b69 853d b597 3ebf
00000210: 0886 1c3d 0440 94bd 8d19 88bc 086e 49be
00000220: 694b c2ba 41f0 af3e f0ab 6bbf 5399 e83d
00000230: 3a78 e73c 61df 3bbf bacc 823d 4f21 bc3d
00000240: 2008 aa3e f70b cf3e 4e43 453b 5705 75bc
00000250: e2ba 20be c34a 3fbf 76fe b6bb dcb4 61bd
00000260: e712 b5bd bd22 43bf 2a14 19bf b0d8 fe3c
00000270: 433d 28be 723b 3ebf 61c7 a83d 7198 c0bd
00000280: 4954 803e 98dc c33e e35e 29be 1bd9 53be
00000290: 758c a4be 9bb5 e1bd 394b af3e 4a27 b9be
000002a0: 0d47 ac3c 3818 033e 6aff 123f 71ad 9c3e
000002b0: 184f 10bf 4286 5cbd 70b6 c23e cca9 1fbe
000002c0: 162f 84be e289 09be 9c11 b1bd f471 903d
000002d0: 1168 0a3f e3ce ca3e 7bf4 2a3e be0a 993e
000002e0: 6e59 a4bd d6c0 f6bc 2dc3 28be 7bcd 043f
000002f0: 30c2 123d 5286 7ebc 7484 123a a35f ab3d
00000300: 6bf9 303e e7b0 03be 732b 183e 82af 1cbf
00000310: e624 36bf 2b6a 23be 85c9 843e c105 b23d
00000320: 7a5f af3e fc45 883d 372b 6cbf 1347 c43d
00000330: f2c7 85bc d769 26be d8f8 8bbe 3ce3 493e
00000340: d50b 443e 07c3 21be 7a86 e2be 7517 f5be
00000350: 1e32 103e acda f13b e8d6 3c3d 7576 86bd
00000360: 845c 0f3e 7a21 c8be 07e9 81be eee6 d33d
00000370: bc80 00be 9e24 4b3e 1a4c c3bc 686b 13bf
00000380: 23c0 d8be 4cd7 363e 4cbb a3be cdd4 7dbf
00000390: 85fa 093e 89c7 66be e05a 50be 0f1d 53be
000003a0: 1595 483c 56c5 08be b4cd f9bc 366e a4be
000003b0: 4635 873e c621 2abe 58f6 4d3d bc1e e53e
000003c0: c95c 553e c166 4abd 778f 1ebd 101a 503d
000003d0: ee82 fa3e dd35 a5be 1362 0d3f 5b51 3dbe
000003e0: 432a 003e ad95 a23e 8d3d adbe 10b1 1bbe
000003f0: 3263 3ebe 656b adbd 4421 bb3e eb5b 69bf

layers.3.bias f4 [64]
-0.22795467 0.49875218 -0.27058938 -0.5112904 -0.26632687 -0.056130767 0.032622464 0.12874728
-0.20156738 -0.21158522 -0.04779562 -0.21229877 -0.39625707 -0.30162552 0.19532233 -0.043128688
-0.016182357 -0.23729426 0.32548434 0.18547234 -0.8009419 0.10361151 -0.27084875 0.111471586
-0.04777681 0.18526441 -0.29776844 -0.033961795 -0.020058928 -0.1502612 0.062423553 -0.3635194
-0.013583298 -0.08925909 -0.5786512 -0.15473971 -0.21795231 -0.10773364 0.124876395 -0.010394126
-0.091359094 0.28526905 -0.2114468 -0.08969918 -0.13831402 0.99461865 0.17890608 -0.21537153
0.24469906 0.5359139 -0.1184921 -0.4820552 -0.11107121 0.50704634 0.1662123 0.027909828
0.09071503 0.03341 -0.2088015 -0.3635807 -0.20912725 -0.25363487 -0.12170482 -0.3666307
00000000: f36c 69be 725c ff3e b18a 8abe ede3 02bf
00000010: ff5b 88be 60e9 65bd 229f 053d 54d6 033e
00000020: ae67 4ebe cca9 58be 57c5 43bd d964 59be
00000030: 35e2 cabe a96e 9abe 9402 483e b5a7 30bd
00000040: dd90 84bc 44fd 72be e2a5 a63e 76ec 3d3e
00000050: 870a 4dbf 4532 d43d b0ac 8abe 374b e43d
00000060: 9eb1 43bd f4b5 3d3e 1b75 98be 861b 0bbd
00000070: 9f52 a4bc 12de 19be d7af 7f3d 371f babe
00000080: 7b8c 5ebc 78cd b6bd 7c22 14bf 1674 1ebe
00000090: e42e 5fbe 74a3 dcbd 32bf ff3d 204c 2abc
000000a0: 7a1a bbbd c90e 923e 8385 58be 34b4 b7bd
000000b0: 31a2 0dbe 549f 7e3f 2833 373e 5b8a 5cbe
000000c0: 6492 7a3e a731 093f fcab f2bd f0cf f6be
000000d0: 4d79 e3bd cacd 013f 8f33 2a3e 27a3 e43c
000000e0: cdc8 b93d edd8 083d 0fd0 55be 4027 babe
000000f0: 7425 56be 6edc 81be 6040 f9bd 05b7 bbbe

layers.5.weight f4 [32, 64]
0.021183576 0.051068697 -0.55485284 -0.45098475 0.09795568 0.08726854 -0.31464764 -0.6126694
0.20155509 -0.14378473 -0.19551937 -0.035917018 -0.14777431 -0.27900982 -0.0490966 -0.23740634
0.14765657 -0.25076413 -0.0074546607 0.2618954 -0.14629902 -0.12780383 -0.29256877 -0.07080217
-0.24494897 0.2986558 -0.08876242 0.43866158 -0.31453204 -0.39118958 0.09186047 0.23202021
0.040957373 -0.03349813 -0.22424445 0.124879204 -0.43138164 -0.080451004 0.2566255 0.34942636
-0.2791288 0.0640034 0.2048691 -0.19412673 0.021486592 0.05413629 -0.013200946 -0.094073035
0.23853366 0.43657565 -0.16125211 -0.0935175 -0.283708 -0.24223667 0.21893468 -0.08727832
0.08725075 -0.28431115 0.23951362 -0.7193566 0.063912556 0.1717132 -0.27294 -0.2283058
-0.28588 -0.06947338 0.1408179 -0.074862584 -0.031170528 -0.5312308 -0.7430003 -0.048314165
-0.021020774 0.13392887 0.30095 -0.012946238 -0.16110052 -0.14720468 -0.51778895 0.07182706
0.2415608 -0.03223925 -0.118820876 0.35508755 -0.19290125 -0.054678068 0.2602676 0.14502056
0.2525892 0.25758436 -0.033069678 -0.016452199 -0.4110481 0.30226666 0.08744589 0.09505706
0.300101 0.22619739 -0.15356454 -0.053801343 0.17921181 0.031828176 -0.04054881 -0.17983559
0.5190868 -0.044488136 -0.5348345 0.31635424 -0.02572947 -0.19966938 -0.05300911 -0.21138588
0.014716623 -0.15344636 0.10752896 0.20828165 -0.504525 -0.20688489 0.14681108 0.117326915
-0.0072470037 -0.2884043 0.0073234406 0.16713049 -0.004000727 0.047023438 -0.5146133 0.153002
0.46278876 -0.119652525 0.40220353 0.096135214 -0.06133496 -0.6025037 0.36079827 0.015191801
-0.021311462 -0.2970742 -0.55763775 0.13535297 -0.0034659775 0.039451703 0.26635686 -0.19155191
-0.14659947 -0.17396551 0.32489485 -0.11094998 -0.2802336 -0.20505945 0.07687109 0.052908584
0.012731287 -0.017011762 -0.16277842 0.2296371 0.4992994 -0.2293865 -0.107689984 -0.10835387
0.034625005 0.6014549 -0.20671014 0.10974927 -0.2958671 -0.08248917 0.017907146 0.07127148
0.3403692 -0.01665631 0.03923471 -0.1884095 -0.69010943 0.1603465 0.2191164 0.35479242
-0.38248312 -0.014371212 0.16838041 -0.1027058 0.52140015 -0.011546307 0.169152 -0.12846547
-0.0673882 -0.09441007 -0.07776764 0.076312646 -0.13349894 0.24573542 -0.19299445 -0.5822797
-0.06425143 0.13113263 -0.060902342 0.35091737 0.46216735 -0.046552237 -0.26730797 -0.27736527
-0.12265534 0.14635299 -0.04418363 -0.04505568 0.31462 -0.21321937 -0.9917129 0.23999222
0.12017417 0.10937391 0.21739513 -0.07758873 -0.07345292 0.21729553 0.079829365 -0.9207048
0.4035215 -0.18960208 -0.0054744105 0.55946577 -0.5421056 0.013388113 -0.41619232 0.5757053
0.045488708 -0.24101166 0.14992844 0.13494697 0.28614008 -0.027092483 -0.07704231 0.08308753
0.077457525 -0.5717333 -0.7088595 -0.06741205 0.06832388 -0.029626653 0.12688385 0.1812301
-0.3029979 -0.24121185 -0.16283259 0.13070564 0.015958954 0.32856584 -0.3178111 0.05244244
0.3354237 0.49513823 -0.4263239 -0.21473348 -0.11833214 -0.27287877 0.015727919 0.4875868
00000000: 2e89 ad3c 692d 513d d60a 0ebf 79e7 e6be
00000010: fd9c c83d d9b9 b23d 7f19 a1be e7d7 1cbf
00000020: 7564 4e3e 4e3c 13be 3b36 48be b91d 13bd
00000030: 2652 17be 60da 8ebe 8419 49bd a61a 73be
00000040: 4933 173e 2864 80be 3a46 f4bb 2717 863e
00000050: 69cf 15be 02df 02be 93cb 95be ba00 91bd
00000060: e7d3 7abe 6ae9 983e 12c9 b5bd 4098 e03e
00000070: 580a a1be 004a c8be 5821 bc3d b596 6d3e
00000080: ebc2 273d 5635 09bd 56a0 65be abc0 ff3d
00000090: 0ede dcbe 7fc3 a4bd 6b64 833e 03e8 b23e
000000a0: f8e9 8ebe 3714 833d 35c9 513e 28c9 46be
000000b0: a604 b03c 04be 5d3d c848 58bc 5da9 c0bd
000000c0: 2b42 743e d886 df3e 461f 25be 1a86 bfbd
000000d0: 2d42 91be e40c 78be 6a30 603e fabe b2bd
000000e0: 85b0 b23d 3b91 91be 0f43 753e c127 38bf
000000f0: 96e4 823d 96d5 2f3e cbbe 8bbe ffc8 69be
00000100: dd5e 92be 0f48 8ebd 9132 103e 8e51 99bd
00000110: 5659 ffbc befe 07bf 4535 3ebf 13e5 45bd
00000120: c233 acbc a624 093e 1e16 9a3e 751c 54bc
00000130: 89f7 24be d3bc 16be d18d 04bf 111a 933d
00000140: b75b 773e 4e0d 04bd 5c58 f3bd 09ce b53e
00000150: e887 45be 1cf6 5fbd cb41 853e 4580 143e
00000160: 5f53 813e 19e2 833e 1274 07bd c3c6 86bc
00000170: e674 d2be b2c2 9a3e d516 b33d 47ad c23d
00000180: d7a6 993e 4aa0 673e 0640 1dbe cc5e 5cbd
00000190: 4d83 373e 435e 023d 8216 26bd d226 38be
000001a0: dfe2 043f 3139 36bd eaea 08bf 2ff9 a13e
000001b0: 9cc6 d2bc 2176 4cbe 1520 59bd 8a75 58be
000001c0: fe1d 713c 0b21 1dbe 2538 dc3d c947 553e
000001d0: 8d28 01bf a2d9 53be a555 163e 1849 f03d
000001e0: 4678 edbb baa9 93be 79f9 ef3b 4124 2b3e
000001f0: 8818 83bb a69b 403d b2bd 03bf 8eac 1c3e
00000200: a6f2 ec3e 620c f5bd 9fed cd3e 8ae2 c43d
00000210: 5e3a 7bbd af3d 1abf 8dba b83e 08e7 783c
00000220: 6095 aebc 1c1a 98be 59c1 0ebf f899 0a3e
00000230: 7425 63bb 1c98 213d ed5f 883e 2f26 44be
00000240: 2c1e 16be 0424 32be 9e58 a63e be39 e3bd
00000250: c77a 8fbe 1bfb 51be 976e 9d3d acb6 583d
00000260: e396 503c 405c 8bbc 63af 26be fd25 6b3e
00000270: 2ca4 ff3e 4be4 6abe 918c dcbd a2e8 ddbd
00000280: f3d2 0d3d f3f8 193f d3ab 53be 3ac4 e03d
00000290: e47b 97be 15f0 a8bd 02b2 923c c8f6 913d
000002a0: df44 ae3e d072 88bc 93b4 203d 6cee 40be
000002b0: 03ab 30bf df31 243e 0d60 603e 5aa7 b53e
000002c0: d4d4 c3be 3b75 6bbc ea6b 2c3e 6b57 d2bd
000002d0: 7b7a 053f b92c 3dbc 2f36 2d3e 748c 03be
000002e0: d302 8abd 115a c1bd a444 9fbd ce49 9c3d
000002f0: f2b3 08be 11a2 7b3e 56a0 45be 4810 15bf
00000300: 4196 83bd a247 063e bc74 79bd 71ab b33e
00000310: 33a1 ec3e 8fad 3ebd 97dc 88be d202 8ebe
00000320: b932 fbbd 8fdd 153e e5f9 34bd 4e8c 38bd
00000330: df15 a13e 2e56 5abe e6e0 7dbf 85c0 753e
00000340: e01d f63d 6eff df3d d49c 5e3e d7e6 9ebd
00000350: 7c6e 96bd b882 5e3e 947d a33d 4fb3 6bbf
00000360: 5f9a ce3e 0c27 42be af62 b3bb 2639 0f3f
00000370: 6fc7 0abf d159 5b3c 2917 d5be 6c61 133f
00000380: 5e52 3a3d c3cb 76be d786 193e 8a2f 0a3e
00000390: f480 923e 0ef1 ddbc 5cc8 9dbd cc29 aa3d
000003a0: 0da2 9e3d 1d5d 12bf d177 35bf 540f 8abd
000003b0: 64ed 8b3d 98b3 f2bc d7ed 013e 6294 393e
000003c0: 8a22 9bbe 3d00 77be 96bd 26be b3d7 053e
000003d0: 5abc 823c c839 a83e 23b8 a2be e2cd 563d
000003e0: a8bc ab3e c282 fd3e 2047 dabe 18e3 5bbe
000003f0: 1f58 f2bd c4b6 8bbe d6d7 803c faa4 f93e

layers.5.bias f4 [32]
0.0025506294 0.356678 -0.13233736 -0.12928863 0.65399784 0.6043455 -0.2197805 -0.09776118
-0.4261991 -0.16265304 -0.18697697 -0.22497447 0.0662812 0.50472504 -0.12450506 0.84954
-0.5555752 0.0848585 0.27228403 -0.35121745 -0.20335953 0.41935384 -0.16082402 -0.53854334
-0.106380545 -0.59752774 -0.34116808 0.0642149 -0.45730823 0.29757887 0.38589907 -0.3463965
00000000: 7628 273b 809e b63e 7283 07be 3d64 04be
00000010: 676c 273f 63b6 1a3f 240e 61be 0337 c8bd
00000020: c536 dabe 858e 26be e476 3fbe b55f 66be
00000030: 70be 873d a935 013f 82fc febd 747b 593f
00000040: 2d3a 0ebf 4bca ad3d d068 8b3e c6d2 b3be
00000050: 7b3d 50be 8cb5 d63e 0daf 24be fadd 09bf
00000060: 0bde d9bd 94f7 18bf 95ad aebe 1a83 833d
00000070: 4e24 eabe 425c 983e 9094 c53e e25a b1be

layers.7.weight f4 [10, 32]
-0.12397294 -0.41259843 -0.20325164 -0.6348638 -0.3563912 -0.43489176 -0.7088852 -0.29790157
0.14544241 -0.60531986 -0.30367327 -0.20510773 -0.61569655 -0.2884078 -0.7389689 -0.30055803
-0.46525517 -0.055030942 -0.61956847 0.0429332 0.0659891 -0.4896376 -0.10901827 -0.4986834
-0.46882004 -0.441577 -0.4313561 -0.6611077 -0.06492964 -0.053827547 0.01818623 -0.106542684
-0.16874415 -0.20174217 -0.7085056 0.096364655 -0.49288628 -0.2872741 -0.051989336 0.007398719
-0.39932403 -0.15923063 -0.3808154 -0.7549917 0.013024693 -0.46753043 0.044804014 -0.65701866
0.04083898 -0.3417962 -0.5519957 -0.5483045 -0.2892853 -0.34282494 -0.70369756 0.0042479765
-0.006825067 -0.02232153 -0.6616772 -0.39196715 -0.39672217 -0.043922972 -0.11657662 -0.008915107
-0.6171214 -0.6328132 -0.43686634 -0.32613468 -0.024152454 -0.026203824 -0.40729138 -0.65549886
-0.37332755 -0.049143095 -0.31701288 -0.60745746 -0.05783918 -0.490158 -0.3426782 -0.29780248
0.116809465 -0.29624942 -0.084300525 0.0028522154 0.0029483333 -0.45937142 0.024243677 -0.32461643
-0.55639434 -0.27969265 -0.15091425 -0.309612 -0.561149 -0.37600383 -0.3573226 0.1083955
-0.41062686 -0.07737925 -0.41103825 -0.07527743 -0.08621589 -0.064680375 -0.6894443 -0.35779902
-0.82187456 0.21056129 0.0067878994 0.19489108 -0.3100775 0.008773955 -0.03263674 -0.3832194
-0.53612584 -0.31169966 -0.36364287 -0.21342154 -0.24160555 -0.51146847 -0.12921254 -0.09947477
-0.276336 -0.6391111 -0.21340023 -0.56946963 -0.49688694 -0.19691323 -0.51971817 0.09223126
-0.4199177 -0.24438946 0.08281768 -0.46145886 -0.39045417 -0.7730289 -0.15491319 0.0045468123
-0.11095489 -0.42915314 -0.46237597 -0.18964283 -0.07223665 -0.457888 -0.08056219 -0.36100075
-0.14152436 -0.11255551 0.09730109 -0.18413779 -0.277395 -0.12134443 -0.40102234 -0.3745798
-0.17456108 -0.3397902 -0.5303525 -0.037000973 -0.50653464 -0.60318935 -0.8872932 -0.23613133
-0.5003022 -0.10584345 -0.66732347 0.041170567 -0.6936924 -0.17257093 -0.5670458 -0.5035625
-0.37919292 -0.030626783 -0.027712349 -0.1158024 0.043753073 -0.0955551 -0.2011692 -0.11148157
-0.42476282 -0.018367674 -0.24828453 -0.4527101 -0.3426158 -0.023893591 -0.22028722 -0.114813074
-0.8345484 -0.30067453 -0.6959806 -0.10088415 0.07263525 -0.2939621 -0.37195045 -0.27514985
-0.4767472 -0.16606875 -0.31577238 -0.61168784 -0.8100088 -0.23269464 -0.20179197 -0.077563584
-0.18842085 -0.5249193 -0.6339342 0.019771745 -0.17348218 -0.28087556 -0.175583 -0.034599345
-0.27728432 -0.5901464 -0.7929611 0.023310939 -0.3457165 -0.12305787 0.014857952 -0.26273763
-0.71000206 0.009942916 -0.2930556 -0.7373643 0.1366897 -0.0471742 -0.36836645 -0.53407055
-0.22616741 -0.7724381 -0.049254123 -0.08623571 -0.07999611 -0.75582695 -0.22273372 -0.5307047
0.03286389 -0.10946837 -0.05190387 -0.47245476 -0.49191004 -0.67334497 -0.066411726 -0.6957039
0.04726866 -0.2519315 -0.1412606 -0.47279721 -0.6289851 -0.124739856 -0.11087065 0.069961935
-0.049646005 -0.21183361 0.15011893 -0.14876667 0.008937568 -0.27920705 -0.41655663 -0.18279521
00000000: 86e5 fdbd 1a40 d3be 3321 50be 6f86 22bf
00000010: e878 b6be 22aa debe 8079 35bf 8e86 98be
00000020: dbee 143e 3ef6 1abf 107b 9bbe c307 52be
00000030: 4a9e 1dbf 30aa 93be 112d 3dbf bee2 99be
00000040: ed35 eebe 2068 61bd 0a9c 1ebf b9da 2f3d
00000050: 4b25 873d c8b1 fabe f944 dfbd 6e53 ffbe
00000060: 2e09 f0be 6116 e2be b5da dcbe 5b3e 29bf
00000070: d5f9 84bd 467a 5cbd 4afb 943c 0d33 dabd
00000080: 44cb 2cbe 8095 4ebe 9f60 35bf d55a c53d
00000090: 975b fcbe 9715 93be c5f2 54bd f470 f23b
000000a0: 3374 ccbe 5b0d 23be 3cfa c2be 2347 41bf
000000b0: 8665 553c 2660 efbe 6a84 373d 6032 28bf
000000c0: c646 273d e9ff aebe 974f 0dbf af5d 0cbf
000000d0: 341d 94be c086 afbe 8625 34bf 9c32 8b3b
000000e0: d0a4 dfbb a4db b6bc ad63 29bf ebaf c8be
000000f0: 2b1f cbbe 93e8 33bd b9bf eebd ab10 12bc
00000100: abfb 1dbf 0c00 22bf f2ac dfbe 20fb a6be
00000110: 5edb c5bc 67a9 d6bc 7f88 d0be c6ce 27bf
00000120: ca24 bfbe 454a 49bd 834f a2be 5582 1bbf
00000130: c7e8 6cbd fdf5 fabe 8473 afbe 9179 98be
00000140: cd39 ef3d 01ae 97be c1a5 acbd 3cec 3a3b
00000150: d338 413b bb32 ebbe ad9a c63c 2034 a6be
00000160: dc6f 0ebf e033 8fbe 4489 1abe 7785 9ebe
00000170: 76a7 0fbf 9383 c0be fdf2 b6be 76fe dd3d
00000180: af3d d2be 0379 9ebd 9b73 d2be 0e2b 9abd
00000190: f591 b0bd 2577 84bd 6c7f 30bf 6f31 b7be
000001a0: 5f66 52bf 619d 573e 076d de3b 8791 473e
000001b0: 7ac2 9ebe a2c0 0f3c 1aae 05bd 5535 c4be
000001c0: 8b3f 09bf 1997 9fbe 662f babe 2d8b 5abe
000001d0: 7267 77be 99ef 02bf 4b50 04be 6eb9 cbbd
000001e0: ea7b 8dbe c99c 23bf 9785 5abe c3c8 11bf
000001f0: f767 febe 9fa3 49be 400c 05bf bee3 bc3d
00000200: 74ff d6be 3b41 7abe 519c a93d 5644 ecbe
00000210: 9ce9 c7be 39e5 45bf 90a1 1ebe 6dfd 943b
00000220: 513c e3bd f6b9 dbbe 8bbc ecbe bb31 42be
00000230: cff0 93bd 4c70 eabe cafd a4bd 17d5 b8be
00000240: c3eb 10be 8183 e6bd cb45 c73d 9e8e 3cbe
00000250: b806 8ebe 6e83 f8bd cd52 cdbe ecc8 bfbe
00000260: 24c0 32be fbf8 adbe 2ec5 07bf 558e 17bd
00000270: 41ac 01bf 9e6a 1abf a625 63bf 69cc 71be
00000280: ce13 00bf 73c4 d8bd b6d5 2abf 78a2 283d
00000290: d395 31bf 6fb6 30be ea29 11bf 79e9 00bf
000002a0: 9325 c2be 05e5 fabc 0205 e3bc cf29 edbd
000002b0: 6c36 333d 64b2 c3bd 4cff 4dbe 7350 e4bd
000002c0: 837a d9be ce77 96bc 4d3e 7ebe 9ec9 e7be
000002d0: 576b afbe 7ebc c3bc f992 61be 1e23 ebbd
000002e0: f7a4 55bf 03f2 99be c92b 32bf 599c cebd
000002f0: cac1 943d 3382 96be 4a70 bebe 71e0 8cbe
00000300: 3618 f4be ed0d 2abe ebac a1be 9397 1cbf
00000310: bd5c 4fbf 8147 6ebe 8ea2 4ebe a8d9 9ebd
00000320: 65f1 40be 1c61 06bf 8349 22bf 5bf8 a13c
00000330: 50a5 31be ecce 8fbe 08cc 33be 0bb8 0dbd
00000340: 36f8 8dbe d613 17bf 80ff 4abf 95f6 be3c
00000350: c101 b1be c405 fcbd c46e 733c 8c85 86be
00000360: b2c2 35bf 9de7 223c 620b 96be e8c3 3cbf
00000370: 62f8 0b3e bc39 41bd 879a bcbe d9b8 08bf
00000380: 6e98 67be 81be 45bf b1be 49bd 599c b0bd
00000390: 00d5 a3bd e07d 41bf 4f14 64be 43dc 07bf
000003a0: 499c 063d f430 e0bd 2799 54bd 97e5 f1be
000003b0: a2db fbbe 5660 2cbf df02 88bd a719 32bf
000003c0: c89c 413d 2afd 80be 9ea6 10be 7a12 f2be
000003d0: 2b05 21bf 9c77 ffbd 2710 e3bd 3448 8f3d
000003e0: 9c59 4bbd e9ea 58be c7b8 193e 4a56 18be
000003f0: e16e 123c 3af4 8ebe e946 d5be ab2e 3bbe

layers.7.bias f4 [10]
-0.39622372 -0.565855 -0.44345158 -0.335193 -0.09958986 -0.32856694 -0.96173 -0.35380775
0.80688304 -0.034633726
00000000: d6dd cabe e0db 10bf 160c e3be 6b9e abbe
00000010: c5f5 cbbd ed39 a8be f033 76bf 4a26 b5be
00000020: e38f 4e3f 18dc 0dbd
